tick_model.pth (torch, 360437 bytes, 10 tensors)

conv1.weight f4 [16, 1, 3, 3]
0.2253855 0.006521511 -0.0070021385 0.16331206 0.28771323 -0.039231446 0.22386463 0.27961025
0.07602251 0.035097048 -0.24721043 0.28807354 0.27109843 -0.36198565 0.2593862 -0.27686942
-0.12482497 -0.3787518 0.22163375 -0.24381733 -0.32486635 0.26401317 0.2759672 0.014360914
-0.39273456 -0.15097429 0.23388787 -0.18483269 0.026708245 0.18005161 -0.20131712 0.04266004
-0.2952679 -0.023664832 -0.16939096 -0.022727093 -0.4142491 -0.0467409 0.008213111 -0.04625281
0.14067385 0.27617982 0.4067965 0.24743783 -0.23231336 -0.09451672 -0.38307658 0.16777813
0.07825905 0.022881271 -0.21832298 0.0146886995 0.37569845 -0.016404452 -0.17856877 -0.5823981
-0.0399663 0.20256206 0.30728632 -0.46562704 0.044393323 0.21863768 -0.30779216 0.23094729
0.25843644 0.23595656 0.111729436 -0.23885609 0.10093276 -0.44061667 -0.099944934 -0.22539075
-0.15607423 -0.20852463 0.27115026 0.20028846 0.43005735 0.2707471 -0.26936 -0.063423574
0.25012195 -0.029277097 -0.15709199 0.19773893 -0.5804929 0.27942365 0.30177784 0.106711976
-0.2106042 0.11012261 0.2381859 0.2894563 0.33691064 -0.023064487 0.16535911 0.19253364
0.055895932 0.1965898 0.23022297 0.100611776 0.2750949 0.33426353 0.22883962 0.16999397
0.2753667 0.23329665 0.197776 -0.055895973 0.35912162 0.28625008 -0.019617647 0.17599143
0.25796878 -0.18682595 -0.3946755 -0.32278243 -0.3011189 0.059114017 0.1694617 0.1361549
-0.03552373 0.27670407 0.3231629 -0.18579297 -0.22802043 -0.33659893 -0.514463 0.027136268
-0.11269636 0.3526803 0.1420534 0.14689246 -0.25803185 0.08421846 0.29578736 -0.21552113
-0.07758642 0.21116206 -0.7047986 0.49217474 0.034571566 -0.38543272 0.0011542555 0.27461046
00000000: 75cb 663e 66b2 d53b 3272 e5bb 473b 273e
00000010: 264f 933e 27b1 20bd c53c 653e 1329 8f3e
00000020: b1b1 9b3d ecc1 0f3d bb24 7dbe 607e 933e
00000030: 6acd 8a3e 2f56 b9be 45ce 843e d4c1 8dbe
00000040: 3ca4 ffbd c2eb c1be f5f3 623e 40ab 79be
00000050: e254 a6be bc2c 873e 934b 8d3e 0a4a 6b3c
00000060: 8114 c9be 0199 1abe 4d80 6f3e c844 3dbe
00000070: 40cb da3c 735f 383e 1326 4ebe 4bbc 2e3d
00000080: 5b2d 97be c0dc c1bc d374 2dbe 2b2e babc
00000090: 7518 d4be 6373 3fbd 4990 063c 9673 3dbd
000000a0: ce0c 103e 7167 8d3e a147 d03e 5860 7d3e
000000b0: 8ee3 6dbe fb91 c1bd 9d22 c4be 08ce 2b3e
000000c0: 4846 a03d 8171 bb3c 0f90 5fbe dfa8 703c
000000d0: 8c5b c03e a162 86bc bbda 36be 0b18 15bf
000000e0: b4b3 23bd 6e6c 4f3e a254 9d3e ab66 eebe
000000f0: c6d5 353d 8ee2 5f3e ef96 9dbe 727d 6c3e
00000100: c851 843e 999e 713e 67d2 e43d b196 74be
00000110: d6b5 ce3d 8298 e1be eeaf ccbd d5cc 66be
00000120: ecd1 1fbe 7b87 55be 35d4 8a3e 6b18 4d3e
00000130: 7a30 dc3e 5d9f 8a3e 8ee9 89be 38e4 81bd
00000140: fc0f 803e 86d6 efbc b9dc 20be 137c 4a3e
00000150: 2f9b 14bf 9e10 8f3e a082 9a3e cf8b da3d
00000160: a1a8 57be f787 e13d 01e7 733e 9e33 943e
00000170: 8d7f ac3e bcf1 bcbc e653 293e 8a27 453e
00000180: 22f3 643d d64e 493e 92bf 6b3e 8c0d ce3d
00000190: 3dd9 8c3e 9724 ab3e ef54 6a3e e612 2e3e
000001a0: ddfc 8c3e 51e5 6e3e cb85 4a3e 2df3 64bd
000001b0: cade b73e 5f8f 923e 30b5 a0bc 1937 343e
000001c0: 7c14 843e 4d4f 3fbe e812 cabe bd43 a5be
000001d0: 422c 9abe 8a21 723d 5e87 2d3e 316c 0b3e
000001e0: 5581 11bd 28ac 8d3e 9c75 a53e 8340 3ebe
000001f0: 307e 69be b256 acbe d9b3 03bf e14c de3c
00000200: 59cd e6bd 8392 b43e 7276 113e fa6a 163e
00000210: c01c 84be ba7a ac3d 7171 973e 92b1 5cbe
00000220: a1e5 9ebd de3a 583e ae6d 34bf 54fe fb3e
00000230: ea9a 0d3d 7057 c5be 634a 973a be99 8c3e

conv1.bias f4 [16]
-0.44976774 -0.30984685 0.20620473 -0.28833663 -0.19909838 0.21510795 -0.19830625 0.29489452
-0.43693104 -0.020074012 -0.18736619 -0.3363355 0.20318092 -0.011943859 -0.22895363 -0.09145563
00000000: f547 e6be 3fa4 9ebe 5527 533e dca0 93be
00000010: 72e0 4bbe 4245 5c3e cb10 4bbe 6afc 963e
00000020: 6db5 dfbe 4172 a4bc ecdc 3fbe 2b34 acbe
00000030: a90e 503e 2db0 43bc d272 6abe 174d bbbd

conv2.weight f4 [32, 16, 3, 3]
0.06944836 -0.009599451 -0.18850718 0.14405777 0.09739761 -0.14497504 0.062438164 0.07981298
-0.049061667 -0.0693762 -0.3131951 0.5606615 -0.08925106 -0.13585249 0.39385092 -0.07497383
-0.14798275 0.5638015 -0.060839277 -0.061897837 0.016138421 -0.038543515 -0.015017731 0.066323236
-0.019598383 0.0049578045 0.26253188 -0.08063434 -0.03972162 0.06123379 -0.014321606 0.072268516
-0.019702038 0.03400471 -0.05174319 0.04824414 0.0145155825 0.12971418 0.020079175 0.12204929
0.11811362 -0.15164883 -0.07398762 -0.011131269 -0.11089501 0.02725791 -0.076604985 -0.042008594
0.11267029 0.15796216 0.099887416 -0.051095493 -0.049086217 0.26392728 0.030911718 -0.19750439
-0.07897293 0.12799935 0.33242553 0.5402027 0.013383937 -0.004989067 0.2793833 0.0055617685
0.045819327 -0.025592154 0.07836707 -0.030612402 -0.067609936 0.09045107 0.033459716 -0.16595136
0.121324025 -0.05660009 -0.17995739 0.06749553 -0.07013356 -0.3693391 0.13068977 -0.078112364
-0.08882253 -0.12958838 -0.5111265 0.34280923 -0.119456105 -0.41733336 0.49396807 -0.15423578
-0.35140908 0.39548114 0.051167354 0.06835984 -0.20473997 0.098274395 0.022095544 -0.18404377
0.08278442 0.090536125 -0.15512206 0.08143444 0.051181104 -0.12342256 0.09275904 0.12716553
-0.15950707 -0.0013477682 0.05755966 -0.12981696 0.061402556 0.19705194 -0.053376168 -0.043863773
0.1620275 0.067144476 0.07304314 0.10138683 -0.09291836 0.10185667 0.13513558 -0.12055196
0.040584613 0.029921306 -0.1819438 0.05794345 0.12646429 -0.1915696 0.038065296 0.102994226
0.08889035 0.0146396225 0.017468885 -0.14718318 0.12558258 0.13482356 -0.18580449 0.20005381
0.20778444 0.18824925 0.29402205 0.35637414 0.20557274 0.122029595 0.48795968 -0.07097697
-0.07054035 -0.00054164196 -0.033178005 -0.016613455 -0.1308199 -0.12917519 -0.00880293 -0.03760214
0.050873198 0.21185495 0.12041653 0.23344257 0.38918886 0.12564565 0.25213027 0.18834431
-0.07095156 -0.109695725 -0.031610973 -0.020012882 -0.028735112 0.054280773 0.15826905 0.24051909
0.01959827 0.117724635 0.20299385 0.033390056 0.071193814 0.010658543 0.06656204 -2.6027362e-06
0.0066871345 -0.070458345 0.06615891 -0.0027813814 -0.09872653 -0.022912256 -0.086647905 0.13704906
0.059487797 0.0027726153 0.16991614 0.2111769 0.2510683 -0.10995257 -0.015690573 0.06245705
0.035874214 -0.009348214 0.035706617 -0.08443686 0.084408335 0.043363716 -0.0621111 0.02840098
0.17205758 -0.095042594 0.091640234 -0.051537026 0.18211944 0.044845 -0.029869677 0.02518223
-0.09221892 0.0137734795 0.03993675 -0.012036052 0.103618726 -0.07212222 -0.053919252 -0.08711769
-0.07253268 0.023909125 -0.06299211 -0.0640791 -0.03289521 0.06339544 0.07168273 0.101671584
0.04605969 0.23174937 0.24528316 0.12417949 0.13557822 0.18199149 -0.13517256 0.15641825
0.07033455 -0.11919253 -0.061846413 -0.023481365 0.028470928 -0.05917391 -0.050330997 -0.0067068185
-0.025224106 0.085119724 0.04914642 -0.047900308 0.024713654 -0.0660134 -0.004512602 0.0068362537
-0.032099944 -0.04968462 -0.075190715 -0.110485606 0.015062008 0.020059522 -0.07257551 0.14039163
00000000: f13a 8e3d 0447 1dbc 0708 41be e183 133e
00000010: 6678 c73d 5674 14be 29bf 7f3d fd74 a33d
00000020: e3f4 48bd 1c15 8ebd 1c5b a0be 8387 0f3f
00000030: 42c9 b6bd ea1c 0bbe d4a6 c93e e18b 99bd
00000040: ca88 17be 4c55 103f 9b32 79bd 9688 7dbd
00000050: b934 843c cedf 1dbd ee0c 76bc 7ad4 873d
00000060: ca8c a0bc 1475 a23b 946a 863e 9e23 a5bd
00000070: 23b3 22bd 48d0 7a3d 2ba5 6abc 8401 943d
00000080: 2b66 a1bc 8648 0b3d abf0 53bd a69b 453d
00000090: c4d2 6d3c cbd3 043e 157d a43c faf4 f93d
000000a0: 8ee5 f13d d549 1bbe d286 97bd ed5f 36bc
000000b0: ec1c e3bd fb4b df3c 13e3 9cbd 3411 2cbd
000000c0: aebf e63d d5c0 213e c691 cc3d 8249 51bd
000000d0: a10e 49bd 7a21 873e 923a fd3c 973e 4abe
000000e0: 8fbc a1bd 4312 033e ae33 aa3e b94a 0a3f
000000f0: 4d48 5b3c 547b a3bb 540b 8f3e 7f3f b63b
00000100: 0cad 3b3d a3a6 d1bc ea7e a03d dcc6 fabc
00000110: 1477 8abd 693e b93d 0e0d 093d 27ef 29be
00000120: bb78 f83d 7fd5 67bd c046 38be 193b 8a3d
00000130: 2fa2 8fbd 041a bdbe 8ad3 053e 60f9 9fbd
00000140: 96e8 b5bd d1b2 04be 30d9 02bf b184 af3e
00000150: 67a5 f4bd b8ac d5be 62e9 fc3e fcef 1dbe
00000160: e4eb b3be 817c ca3e dc94 513d 3e00 8c3d
00000170: 5ba7 51be 1644 c93d b701 b53c f875 3cbe
00000180: e18a a93d 016b b93d 51d8 1ebe 1ac7 a63d
00000190: 47a3 513d f8c4 fcbd 74f8 bd3d ae37 023e
000001a0: d255 23be 99a7 b0ba aec3 6b3d bdee 04be
000001b0: 3f81 7b3d fcc7 493e f8a0 5abd 80aa 33bd
000001c0: 89ea 253e 0b83 893d a497 953d e6a3 cf3d
000001d0: fb4b bebd 3b9a d03d fb60 0a3e f2e3 f6bd
000001e0: 0d3c 263d 871d f53c 7a4f 3abe 1c56 6d3d
000001f0: db7f 013e d22a 44be 5bea 1b3d a3ee d23d
00000200: 250c b63d 07db 6f3c e81a 8f3c 30b7 16be
00000210: b898 003e 300f 0a3e 8843 3ebe e8da 4c3e
00000220: 72c5 543e 69c4 403e 0f8a 963e ac76 b63e
00000230: a981 523e a7ea f93d dad5 f93e 605c 91bd
00000240: 7677 90bd fafc 0dba a9e5 07bd f118 88bc
00000250: a7f5 05be 8046 04be 2a3a 10bc b404 1abd
00000260: 6a60 503d 81f0 583e f19c f63d 920b 6f3e
00000270: c343 c73e 41a9 003e 3817 813e 55dd 403e
00000280: 0d4f 91bd 27a8 e0bd 827a 01bd 0ef2 a3bc
00000290: e665 ebbc 8455 5e3d 4811 223e a34a 763e
000002a0: 8d8c a03c 9d19 f13d 9fdd 4f3e 03c4 083d
000002b0: 10ce 913d 2ba1 2e3c ae51 883d abaa 2eb6
000002c0: c01f db3b 774c 90bd 537e 873d d647 36bb
000002d0: 2331 cabd 7cb2 bbbc 7574 b1bd 9756 0c3e
000002e0: 7aa9 733d c4b4 353b 7ffe 2d3e c23e 583e
000002f0: 068c 803e d02e e1bd 8489 80bc f7d2 7f3d
00000300: d7f0 123d 4029 19bc 1a41 123d 3ced acbd
00000310: 47de ac3d 279e 313d 3568 7ebd 2ca9 e83c
00000320: dd2f 303e b1a5 c2bd e0ad bb3d 7d18 53bd
00000330: 857d 3a3e 64af 373d 41b1 f4bc f74a ce3c
00000340: 46dd bcbd 29aa 613c b894 233d dc32 45bc
00000350: 0e36 d43d d1b4 93bd 6fda 5cbd c26a b2bd
00000360: 048c 94bd 12dd c33c 0202 81bd e73b 83bd
00000370: 21bd 06bd 78d5 813d 65ce 923d 3139 d03d
00000380: 16a9 3c3d b54f 6d3e 822b 7b3e d151 fe3d
00000390: 04d5 0a3e fa5b 3a3e ad6a 0abe 1b2c 203e
000003a0: 900b 903d 371b f4bd aa52 7dbd fe5b c0bc
000003b0: dd3b e93c 5860 72bd e027 4ebd dfc4 dbbb
000003c0: c9a2 cebc 4053 ae3d c24d 493d 1d33 44bd
000003d0: 4a74 ca3c 0932 87bd 73de 93bb a702 e03b
000003e0: 3b7b 03bd 1a82 4bbd 97fd 99bd 4746 e2bd
000003f0: a4c6 763c de53 a43c 78a2 94bd d3c2 0f3e

conv2.bias f4 [32]
0.037271388 0.061935313 -0.041698188 0.08198828 -0.01511887 -0.10517557 -0.05282169 -0.007717833
-0.066672236 -0.07013005 -0.07859138 -0.065703645 0.1066432 0.009527915 -0.017945603 0.10148418
-0.021687146 0.060699824 -0.09293711 0.069925174 -0.0057973154 0.08463929 -0.018161245 -0.0077251233
-0.047549654 -0.0410539 0.02295569 0.0009030503 0.06664263 -0.04531589 0.067039795 0.004652597
00000000: e2a9 183d e2af 7d3d b8cb 2abd 79e9 a73d
00000010: 23b5 77bc 4a66 d7bd 8e5b 58bd e0e5 fcbb
00000020: 748b 88bd 58a0 8fbd 84f4 a0bd a28f 86bd
00000030: c067 da3d f91a 1c3c a802 93bc f0d6 cf3d
00000040: 3ea9 b1bc 61a0 783d d055 bebd ee34 8f3d
00000050: 68f7 bdbb 5d57 ad3d e4c6 94bc 0823 fdbb
00000060: 6dc3 42bd 2228 28bd 920d bc3c aeba 6c3a
00000070: ee7b 883d 289d 39bd 294c 893d d074 983b

conv3.weight f4 [64, 32, 3, 3]
0.11425598 0.08009659 -0.0013117521 0.0502465 -0.044625606 0.06592779 0.06547214 -0.10091019
0.022239257 0.098941445 0.035897348 0.017603232 0.014627663 0.12858748 0.0504202 -0.20149377
-0.1909183 -0.02198982 0.053862605 0.013246767 0.07205476 0.0107396655 -0.032122966 0.013128462
0.026492717 -0.114623465 -0.082251355 0.043457955 -0.11554234 -0.056010395 -0.06551211 -0.018375555
-0.061966017 0.051397752 0.17596191 -0.017995156 0.022983987 -0.05552878 -0.0002875226 -0.05794953
-0.12417106 0.05616725 -0.008279564 0.03160473 0.093769476 0.038827777 -0.021032035 0.06295011
0.050943054 -0.018209424 0.044360507 0.05056052 -0.051438164 0.054701105 0.10535192 0.007251644
0.06264267 0.0036961585 -0.11736613 0.048733253 -0.00991199 -0.13330649 0.06315463 0.046268184
-0.028142696 0.055002525 0.023164285 -0.0011193448 0.0057504927 -0.02957329 0.039245714 -0.011807544
-0.12280783 -0.044276793 -0.05703035 -0.037535403 0.0077140997 0.061462663 -0.077869035 -0.09625217
-0.009005802 -0.058651827 -0.09188956 -0.014377523 -0.040115125 -0.14052257 -0.07899167 0.024603184
-0.13606921 -0.05425439 -0.086239986 -0.033403523 0.002135453 0.027287828 0.055208404 -0.04619593
0.053174905 -0.053858083 0.008702778 -0.05093532 -0.010783848 0.039936908 -0.09022288 -0.04795812
0.022775013 -0.011198155 0.046366215 0.063537955 -0.03611156 -0.12866034 -0.011248635 -0.057767693
0.09761178 -0.041161455 -0.08592796 -0.071145914 0.059550032 -0.05221715 0.031354353 -0.003995542
0.04797556 -0.05580336 0.03153257 0.061086852 0.035993237 -0.017102955 0.015830806 -0.00034429057
-0.009546654 -0.051981915 -0.023993976 0.05343065 0.026600169 0.024792653 -8.043024e-06 -0.08776723
0.08172809 0.04799058 -0.09062155 -0.023692502 0.027909452 0.027227797 0.16371207 0.012179547
-0.053548727 -0.043374337 0.030923117 -0.0037347768 -0.021864772 -0.06462251 0.052607387 0.011031779
0.06657667 -0.023699576 -0.06982197 -0.014294297 0.08784401 0.09158516 -0.076351956 0.039195627
0.06627646 -0.1537656 -0.0055579515 0.002413713 0.03595762 -0.058454253 0.024111884 0.055118486
0.021278795 -0.055538822 0.048332684 0.08824795 0.035121188 -0.05008456 -0.023321582 0.111242555
-0.026173897 -0.12532215 0.13703078 -0.077123754 0.025875617 -0.011681649 0.077620976 -0.0124465
0.09581717 0.05438021 -0.122778855 -0.01768053 -0.016487995 -0.043982502 -0.06275726 0.0141044315
-0.036793232 -0.16236474 -0.08773517 0.0889807 0.1103897 -0.051414166 -0.010724891 0.0035228692
-0.04732931 0.09948112 0.0074210996 0.046440296 -0.042261466 0.14806646 -0.007995942 -0.0027486528
-0.0021167928 0.0092074685 -0.07427714 0.07700342 -0.03529964 -0.0392234 0.021168424 -0.049337324
-0.15801913 -0.11062035 -0.07103225 -0.18086843 -0.12853003 -0.053894322 0.17723817 0.15101019
0.04641421 -0.018098759 -0.028956002 -0.038253438 -0.05705683 0.041989673 0.034506496 0.014014582
-0.09299783 -0.03952645 0.05394974 -0.029023575 0.06463065 -0.016017955 0.009693033 -0.002012321
0.014960993 -0.037610132 -0.044701815 0.06886297 -0.033032797 -0.092100024 -0.11150707 0.07330987
-0.09003963 -0.0725317 -0.18850297 0.04462849 0.0035611645 0.019896213 0.06757153 0.02257466
00000000: 0aff e93d ae09 a43d 19ef abba 46cf 4d3d
00000010: 57c9 36bd 2605 873d 4216 863d 00aa cebd
00000020: 1a2f b63c d0a1 ca3d 1909 133d a734 903c
00000030: dea8 6f3c 70ac 033e 6985 4e3d 6254 4ebe
00000040: 1680 43be ff23 b4bc 099f 5c3d f808 593c
00000050: 7291 933d 6cf5 2f3c 5f93 03bd c318 573c
00000060: 4107 d93c b5bf eabd 6673 a8bd f800 323d
00000070: 76a1 ecbd 286b 65bd 372b 86bd 5588 96bc
00000080: 14d0 7dbd 7386 523d 5c2f 343e 946a 93bc
00000090: ea48 bc3c 2572 63bd a1be 96b9 7d5c 6dbd
000000a0: 664d febd a10f 663d 02a7 07bc f673 013d
000000b0: 360a c03d e009 1f3d 604b acbc fdeb 803d
000000c0: aaa9 503d ee2b 95bc 5db3 353d 8c18 4f3d
000000d0: d3b0 52bd 440e 603d bfc2 d73d 339f ed3b
000000e0: cd4a 803d 403b 723b a75d f0bd 859c 473d
000000f0: e665 22bc 7f81 08be 3757 813d b583 3d3d
00000100: 838b e6bc 544a 613d 07c3 bd3c fbb6 92ba
00000110: a16e bc3b af43 f2bc 1dc0 203d 6e74 41bc
00000120: ac82 fbbd 955b 35bd a898 69bd b9be 19bd
00000130: 8fc6 fc3b 46c0 7b3d cd79 9fbd dc1f c5bd
00000140: 128d 13bc e63c 70bd 9830 bcbd b48f 6bbc
00000150: c24f 24bd 26e5 0fbe 62c6 a1bd 9e8c c93c
00000160: ba55 0bbe da39 5ebd 979e b0bd 22d2 08bd
00000170: f5f2 0b3b b98a df3c 3522 623d f237 3dbd
00000180: eecd 593d 4b9a 5cbd 1996 0e3c 8ea1 50bd
00000190: bdae 30bc e294 233d c6c6 b8bd bc6f 44bd
000001a0: aa92 ba3c 7778 37bc 80ea 3d3d 3020 823d
000001b0: b7e9 13bd 89bf 03be 324c 38bc d19d 6cbd
000001c0: afe8 c73d ea98 28bd 00fb afbd f3b4 91bd
000001d0: bcea 733d a6e1 55bd 6c6d 003d 09ed 82bb
000001e0: 0582 443d 1092 64bd 4c28 013d 3536 7a3d
000001f0: a56d 133d 7f1b 8cbc 9baf 813c e681 b4b9
00000200: 9269 1cbc fdea 54bd 048f c4bc 19da 5a3d
00000210: 99e8 d93c f619 cb3c 86f0 06b7 4ebf b3bd
00000220: 0f61 a73d c591 443d cb97 b9bd c716 c2bc
00000230: 5da2 e43c d40c df3c 23a4 273e b98c 473c
00000240: e955 5bbd 4aa9 31bd 7a52 fd3c 28c3 74bb
00000250: c01d b3bc ce58 84bd d87a 573d a3be 343c
00000260: 5959 883d 9d25 c2bc d2fe 8ebd a132 6abc
00000270: 8fe7 b33d 0091 bb3d 6a5e 9cbd 988b 203d
00000280: f4bb 873d bb74 1dbe 7a1f b6bb 622f 1e3b
00000290: 4c48 133d ba6d 6fbd 4986 c53c ecc3 613d
000002a0: de50 ae3c ad7c 63bd 7ef8 453d 57bb b43d
000002b0: 3cdb 0f3d 7825 4dbd e70c bfbc 23d3 e33d
000002c0: a46a d6bc 7354 00be cc51 0c3e 0ff3 9dbd
000002d0: 1af9 d33c 6364 3fbc bff7 9e3d 68ec 4bbc
000002e0: cb3b c43d c8bd 5e3d 7b73 fbbd c2d6 90bc
000002f0: d511 87bc ff26 34bd e186 80bd 4616 673c
00000300: 80b4 16bd f142 26be 7fae b3bd 833b b63d
00000310: ff13 e23d a997 52bd 74b7 2fbc f0df 663b
00000320: 61dc 41bd c2bc cb3d b22c f33b 2e38 3e3d
00000330: 5c1a 2dbd bc9e 173e 6901 03bc be22 34bb
00000340: e4b9 0abb ecda 163c 9d1e 98bd f8b3 9d3d
00000350: 5b96 10bd b7a8 20bd 6769 ad3c ef15 4abd
00000360: c4cf 21be ec8c e2bd 5b79 91bd 9335 39be
00000370: 609d 03be 4bc0 5cbd ec7d 353e 6aa2 1a3e
00000380: d41c 3e3d d943 94bc 2335 edbc a3af 1cbd
00000390: 6cb4 69bd 5dfd 2b3d af56 0d3d 6b9d 653c
000003a0: a575 bebd 7de6 21bd 67fa 5c3d d9c2 edbc
000003b0: 135d 843d 1638 83bc 87cf 1e3c 25e1 03bb
000003c0: f41e 753c 150d 1abd 4019 37bd 0708 8d3d
000003d0: 664d 07bd f09e bcbd d25d e4bd 7c23 963d
000003e0: b366 b8bd 808b 94bd ec06 41be 5dcc 363d
000003f0: 6d62 693b 62fd a23c f162 8a3d 7eee b83c

conv3.bias f4 [64]
-0.031014983 -0.020356946 -0.04887643 -0.05635117 -0.010636025 0.04066242 -0.0345666 -0.056980498
-0.040566422 -0.05805978 0.017161643 0.092847064 -0.06526282 -0.00018391435 0.021503488 0.077882424
-0.046257015 -0.039205547 -0.064349376 0.048824154 0.06214024 0.007840534 -0.07458311 -0.04876698
-0.05596003 0.08148074 -0.04831075 0.0068065748 0.03798442 -0.01402134 0.008610246 -0.14285116
-0.06569901 0.019857787 0.02891602 -0.05948527 0.026687704 -0.042279195 -0.04163489 -0.016245065
0.022887861 -0.049738575 -0.011886763 -0.02546894 -0.0058248234 -0.0888585 0.004712877 -0.07502708
0.031501427 -0.0007981638 -0.052487988 -0.006705092 0.095508285 0.04217436 -0.065555155 -0.008590273
-0.009225253 0.0653696 -0.0047938754 0.038903344 0.11095933 0.005249298 -0.0073607382 0.069857165
00000000: 2213 febc 9cc3 a6bc a732 48bd 7cd0 66bd
00000010: b942 2ebc a38d 263d b595 0dbd 6264 69bd
00000020: fa28 26bd 18d0 6dbd 9396 8c3c 9a26 be3d
00000030: 83a8 85bd 22d9 40b9 1528 b03c d280 9f3d
00000040: ff77 3dbd ff95 20bd 9bc9 83bd d6fb 473d
00000050: c486 7e3d 9575 003c 08bf 98bd e3bf 47bd
00000060: 5836 65bd 60df a63d 7ee1 45bd b009 df3b
00000070: 8d95 1b3d c3b9 65bc fd11 0d3c 9347 12be
00000080: 348d 86bd ccac a23c 4ae1 ec3c d4a6 73bd
00000090: 2ca0 da3c f32c 2dbd 5989 2abd 5f14 85bc
000000a0: 537f bb3c adba 4bbd b3c0 42bc 3da4 d0bc
000000b0: 29de bebb 72fb b5bd 7a6e 9a3b cca7 99bd
000000c0: a407 013d de3b 51ba a5fd 56bd 63b6 dbbb
000000d0: d999 c33d 06bf 2c3d c841 86bd 37be 0cbc
000000e0: 8425 17bc 7fe0 853d f115 9dbb 1d59 1f3d
000000f0: a53e e33d 4e02 ac3b 5932 f1bb 4611 8f3d

fc1.weight f4 [64, 1024]
-0.016155047 -0.01800913 -0.024377936 -0.009118244 0.040230803 0.01682898 -0.060225017 -0.03767022
0.00643162 -0.00064319285 0.16153139 -0.0750669 -0.018145645 0.01995149 -0.0176572 -0.0077664647
0.010886441 0.04421351 0.021347912 -0.013680894 0.003612309 0.013422168 -0.012440705 0.015267019
-0.07336351 -0.082769394 0.07359704 -0.004218558 -0.032411385 -0.019913778 0.020545386 0.040144764
-0.009101204 0.0007013988 0.017822986 -0.019380497 -0.030177874 -0.0541733 0.16738853 -0.018162003
0.026007613 0.009362775 -0.020056464 0.0011302327 -0.017172355 0.041724477 -0.049381252 0.040960427
-0.032907605 -0.04230028 -0.017936643 -0.051686335 -0.0033364762 0.004625865 -0.034053236 -0.03633679
0.0010891635 0.0005911536 -0.0070544817 -0.034778 -0.0016642531 -0.022007931 0.003568174 -0.055621646
-0.02013685 -0.043578897 0.00041364325 -0.0070052575 -0.01634811 -0.058597356 -0.021275014 0.018828293
-0.029779231 0.11823043 -0.0063671325 0.007985529 -0.0006297698 0.0674111 0.0035182617 0.021232247
0.020729853 0.0070846756 -0.012801882 0.008936114 0.014638143 0.13208126 0.01720185 0.015723145
0.0618294 -0.023384307 -0.09426844 0.06802642 -0.024357555 0.073567964 0.09641817 -0.03262524
-0.021085786 -0.041607715 -0.012777902 0.032140445 0.00392628 0.011418744 0.013427104 0.0038816282
0.03039254 -0.02921883 0.014420249 -0.025113929 -0.015860332 0.029463975 0.023773868 -0.029646358
0.004997667 0.037427127 0.0206251 0.019814074 0.0049260794 0.0058162366 0.010870676 -0.0077723516
0.04523861 -0.05053642 -0.080439046 0.05587238 -0.0126394825 0.029170316 0.02565365 -0.01583422
0.010295928 0.015134819 -7.3626536e-05 -0.020311134 0.008262452 0.027156904 0.024583438 -0.0021475968
-0.015323755 0.00026013298 -0.010697617 0.006452873 0.031275786 -0.00662579 0.023877192 -0.0011940273
0.042886138 -0.045148503 0.019132236 0.05406588 -0.023421058 -0.0027634734 -0.022272008 0.00072833884
-0.023285765 0.21496159 -0.100023866 -0.0143275 -0.02102868 -0.023930866 0.003971553 -0.0036581836
0.020954274 -0.014439678 -0.04245657 -0.02484306 -0.011681744 -0.035201106 -0.023429 -0.0022087551
-0.07735625 -0.008745828 -0.015965814 0.008086936 -0.0076203784 -0.011406541 -0.034395568 -0.025977494
-0.006486903 -0.013029158 -0.04894288 0.0093175415 -0.035463884 0.0101367375 0.16614917 -0.022081498
-0.005073075 0.0045689717 0.05140685 0.055815443 0.008046561 0.0372596 0.0049113743 0.01809688
-0.047491618 0.06886649 0.041184735 -0.0018438001 -0.057273544 0.010162982 -0.08554057 0.014298973
0.022301538 -0.06033402 0.082663134 0.0011849242 0.016184006 0.051885027 0.0018599051 -0.0012447626
0.026728705 0.012565154 -0.021654548 0.028101785 0.0059118513 0.008840438 0.008625028 -0.028069932
-0.024918271 -0.0067444327 -0.025137555 0.024481574 0.01137029 0.019968769 -0.01752456 0.027441295
-0.032783095 0.01689011 0.00909496 -0.0005224788 0.08557656 0.11150469 -0.07946452 -0.010233558
0.034435373 0.115970924 -0.07943139 0.028444221 0.015641222 -0.0012155263 0.015099732 -0.026924446
-0.04290086 0.0085461065 0.0056521147 -0.02664832 -0.023192966 0.07340461 -0.027394896 0.0014935331
0.0898939 0.28081217 0.23482771 -0.052722603 -0.013265413 0.032070693 -0.012129609 0.009421858
00000000: 9757 84bc e287 93bc 3db4 c7bc b064 15bc
00000010: 0ec9 243d eedc 893c 82ae 76bd 174c 1abd
00000020: 57c0 d23b f19b 28ba 7c68 253e adbc 99bd
00000030: 2da6 94bc 4f71 a33c d5a5 90bc d47d febb
00000040: 0b5d 323c 3a19 353d d1e1 ae3c d425 60bc
00000050: 7dbc 6c3b a7e8 5b3c 19d4 4bbc 8522 7a3c
00000060: 9c3f 96bd 0083 a9bd 0bba 963d d43b 8abb
00000070: cdc1 04bd 3822 a3bc cc4e a83c d66e 243d
00000080: 371d 15bc 14de 373a 8301 923c d9c3 9ebc
00000090: 9737 f7bc d2e4 5dbd e667 2b3e 7bc8 94bc
000000a0: eb0d d53c 5366 193c 744d a4bc 5124 943a
000000b0: 0aad 8cbc 49e7 2a3d ff43 4abd 1fc6 273d
000000c0: 20ca 06bd 0f43 2dbd deef 92bc 0db5 53bd
000000d0: c8a8 5abb 9194 973b 687b 0bbd e3d5 14bd
000000e0: 43c2 8e3a a6f7 1a3a 4829 e7bb 6073 0ebd
000000f0: 1123 daba fa49 b4bc 07d8 693b 86d3 63bd
00000100: 09f6 a4bc c97f 32bd 42de d839 5c8c e5bb
00000110: 79ec 85bc c803 70bd f048 aebc cb3d 9a3c
00000120: 93f3 f3bc cc22 f23d 61a3 d0bb bcd5 023c
00000130: 2317 25ba d50e 8a3d a392 663b 40ef ad3c
00000140: a7d1 a93c 9126 e83b fcbe 51bc c768 123c
00000150: d2d4 6f3c 4f40 073e e5ea 8c3c d3cd 803c
00000160: d340 7d3d 7290 bfbc d00f c1bd 7051 8b3d
00000170: 7f89 c7bc cdaa 963d e476 c53d 0ba2 05bd
00000180: 19bc acbc da6c 2abd 685a 51bc b3a5 033d
00000190: 06a8 803b af15 3b3c 5bfd 5b3c ea62 7e3b
000001a0: c7f9 f83c 545c efbc e842 6c3c babb cdbc
000001b0: 87ed 81bc 6f5e f13c 6ac1 c23c ebdc f2bc
000001c0: 78c3 a33b 304d 193d f8f5 a83c 2051 a23c
000001d0: f36a a13b 2196 be3b eb1a 323c 36af febb
000001e0: 1f4c 393d 47ff 4ebd 3abd a4bd 70da 643d
000001f0: d515 4fbc 96f6 ee3c 9a27 d23c c4b6 81bc
00000200: 41b0 283c 08f8 773c f267 9ab8 8963 a6bc
00000210: 3c5f 073c 2878 de3c 3563 c93c b2be 0cbb
00000220: 7d10 7bbc 7562 8839 0f45 2fbc 9f72 d33b
00000230: 0a1b 003d 281d d9bb 1a9a c33c e880 9cba
00000240: 60a9 2f3d a3ed 38bd 35bb 9c3c 2f74 5d3d
00000250: 85dd bfbc 641b 35bb c973 b6bc feed 3e3a
00000260: cac1 bebc e41e 5c3e 50d9 ccbd e4bd 6abc
00000270: 5744 acbc aa0a c4bc cd23 823b 23be 6fbb
00000280: 4ca8 ab3c 6694 6cbc f1e6 2dbd ac83 cbbc
00000290: c964 3fbc 092f 10bd 2dee bfbc c3c0 10bb
000002a0: f46c 9ebd a94a 0fbc bdca 82bc 117f 043c
000002b0: 5eb4 f9bb 80e2 3abc 5ee2 0cbd c1ce d4bc
000002c0: 1690 d4bb 4078 55bc 5478 48bd 9aa8 183c
000002d0: 9442 11bd 8f14 263c 0223 2a3e 42e4 b4bc
000002e0: 0a3c a6bb 50b7 953b fd8f 523d bc9e 643d
000002f0: b9d5 033c 869d 183d 98ef a03b e83f 943c
00000300: 9286 42bd e009 8d3d 53b1 283d aaab f1ba
00000310: aa97 6abd a382 263c e52f afbd 3d46 6a3c
00000320: b7b1 b63c ce20 77bd 4a4b a93d 754f 9b3a
00000330: 5294 843c 6585 543d 0fc8 f33a 4d27 a3ba
00000340: 28f6 da3c 13de 4d3c e164 b1bc b735 e63c
00000350: 34b8 c13b 7cd7 103c fd4f 0d3c eaf2 e5bc
00000360: 6721 ccbc 6700 ddbb 46ed cdbc 958d c83c
00000370: 744a 3a3c 8b95 a33c ab8f 8fbc 91cc e03c
00000380: 9147 06bd 215d 8a3c 0703 153c f5f6 08ba
00000390: c342 af3d 925c e43d 4bbe a2bd a7aa 27bc
000003a0: 1b0c 0d3d 2a82 ed3d edac a2bd db03 e93c
000003b0: 0522 803c 4b52 9fba de64 773c a890 dcbc
000003c0: d0b8 2fbd f804 0c3c 6035 b93b 944d dabc
000003d0: 2dff bdbc 2855 963d 436b e0bc a8c2 c33a
000003e0: 4b1a b83d 9dc6 8f3e ad76 703e a8f3 57bd
000003f0: 2d57 59bc 8f5c 033d 44bb 46bc 235e 1a3c

fc1.bias f4 [64]
0.03465762 -0.03934621 0.042305022 -0.021662854 0.029194243 0.0080221305 0.014012461 -0.004700612
0.017774105 0.026114326 0.0218012 -0.014282997 -0.015675938 0.03697675 -0.0193904 0.019035771
0.029629689 0.012735149 -0.015984902 0.018659683 -0.03595519 -0.022500783 -0.026780175 -0.018166518
-0.021577477 -0.011189172 0.0069195484 0.018438071 0.004036733 -0.0048826695 -0.029142803 -0.025904454
-0.025987769 -0.022461338 -0.014870621 0.012906871 -0.03339213 -0.042457733 0.003031351 -0.022790432
0.0044989637 0.04847627 0.017121717 0.023476474 0.014807282 -0.05935614 0.014910146 0.020094184
-0.0070469202 -0.028657466 -0.002465498 0.023906477 -0.027685279 -0.023477398 0.021161275 0.0029764527
-0.0063243965 -0.022642737 -0.033800073 0.024444185 0.013804503 -0.0055945106 -0.035876516 0.029380305
00000000: 26f5 0d3d 7e29 21bd 0848 2d3d 4c76 b1bc
00000010: c428 ef3c 416f 033c 8594 653c 9707 9abb
00000020: 009b 913c b6ed d53c 6e98 b23c 3b03 6abc
00000030: d36a 80bc ef74 173d 9ed8 9ebc e8f0 9b3c
00000040: f6b9 f23c 16a7 503c c5f2 82bc 31dc 983c
00000050: c045 13bd 9053 b8bc 1962 dbbc f3d1 94bc
00000060: 40c3 b0bc ca52 37bc 61bd e23b 700b 973c
00000070: 9246 843b cdfe 9fbb e3bc eebc 9435 d4bc
00000080: 4de4 d4bc d700 b8bc e8a3 73bc 5777 533c
00000090: 30c6 08bd 29e8 2dbd a1a9 463b 00b3 babc
000000a0: 0b6c 933b 0e8f 463d d842 8c3c bc51 c03c
000000b0: 3e9a 723c 6d1f 73bd af49 743c 8f9c a43c
000000c0: dae9 e6bb 10c3 eabc 3194 21bb 84d7 c33c
000000d0: 3dcc e2bc ac53 c0bc 695a ad3c 9710 433b
000000e0: e23c cfbb 437d b9bc f271 0abd 2c3f c83c
000000f0: 482c 623c 2852 b7bb 41f3 12bd f7ae f03c

fc2.weight f4 [2, 64]
0.2101507 0.04468836 -0.21001624 0.19676332 0.2365295 -0.0009255618 0.031593863 -0.08665055
-0.08567915 0.24199183 -0.0901044 -0.011868619 0.23707911 -0.106789045 0.07674846 -0.14923821
0.09117835 0.2026247 0.026608383 0.10086535 0.0555583 0.055242267 0.0036092463 0.0117956465
0.06793212 -0.057979748 0.024368653 0.007917851 -0.042208366 -0.114882745 0.0146711655 0.010288617
0.109817244 -0.07102351 0.0030136046 -0.022637801 -0.12594451 0.02207245 0.045765333 -0.056312993
0.13949661 -0.15216415 0.10599982 0.034862734 -0.10119792 -0.008347111 0.016698642 0.109350525
0.04239729 -0.07575927 0.1134241 -0.06508496 0.075089246 -0.037729587 -0.029007718 0.103952155
0.026657227 -0.056008145 0.045707785 -0.104843654 -0.021549473 -0.10112004 0.09986484 0.24622765
-0.24392802 0.06628247 0.18840724 -0.28003812 -0.1947369 -0.0248621 0.0012402668 0.06900592
0.12026936 -0.24665232 0.11080677 -0.016463494 -0.1825465 0.10870691 0.07920595 0.16986811
-0.2973604 -0.26841357 0.11284583 0.11501062 0.05854758 0.084135294 0.03630822 0.028398192
-0.044200853 -0.07242255 0.016117534 0.044995986 -0.057606768 -0.08064126 0.04708526 0.08597106
0.021000223 0.1068355 0.05791941 -0.071193755 -0.10183114 0.10647487 0.10077449 -0.096391276
-0.29206544 0.13437632 0.07135396 -0.013095787 -0.055273242 -0.018650668 0.061425276 0.11717935
-0.032507874 -0.030560544 -0.10955281 0.050789993 0.0038167262 -0.048503384 -0.083825506 0.07112082
-0.089097664 -0.029066497 -0.09463766 0.04951923 0.033552557 0.059676014 0.07998306 -0.25613788
00000000: bf31 573e 240b 373d 7f0e 57be 537c 493e
00000010: ca34 723e 67a1 72ba 9168 013d d875 b1bd
00000020: 8d78 afbd b5cc 773e a888 b8bd 9974 42bc
00000030: dec4 723e 37b4 dabd 4c2e 9d3d e7d1 18be
00000040: b7bb ba3d d97c 4f3e d3f9 d93c 7e92 ce3d
00000050: 1a91 633d b745 623d 1b89 6c3b 8742 413c
00000060: ff1f 8b3d 2c7c 6dbd c5a0 c73c e0b9 013c
00000070: aee2 2cbd a547 ebbd 545f 703c 9691 283c
00000080: dde7 e03d c674 91bd e57f 453b e972 b9bc
00000090: 99f7 00be 48d1 b43c 6e74 3b3d 74a8 66bd
000000a0: 33d8 0e3e ebd0 1bbe 6f16 d93d 3acc 0e3d
000000b0: db40 cfbd 52c2 08bc 97cb 883c 2bf3 df3d
000000c0: c8a8 2d3d ad27 9bbd e54a e83d 434b 85bd
000000d0: 64c8 993d 578a 1abd 98a1 edbc dee4 d43d
000000e0: 4260 da3c cc68 65bd 1638 3b3d 45b8 d6bd
000000f0: 8588 b0bc 0618 cfbd f085 cc3d 1a23 7c3e
00000100: 44c8 79be 1bbf 873d d4ed 403e 2861 8fbe
00000110: 1c69 47be 9aab cbbc 7390 a23a fa52 8d3d
00000120: c84f f63d 6d92 7cbe a9ee e23d 73de 86bc
00000130: 78ed 3abe baa1 de3d bb36 a23d e8f1 2d3e
00000140: 9f3f 98be 816d 89be b71b e73d b08a eb3d
00000150: 96cf 6f3d 204f ac3d eeb7 143d 53a3 e83c
00000160: f40b 35bd 4652 94bd eb08 843c b64d 383d
00000170: 13f5 6bbd 3f27 a5bd 79dc 403d 9811 b03d
00000180: a908 ac3c 92cc da3d e73c 6d3d 08ce 91bd
00000190: d88c d0bd 7f0f da3d db62 ce3d ca68 c5bd
000001a0: 9a89 95be f299 093e 0622 923d b68f 56bc
000001b0: 3266 62bd 49c9 98bc 1299 7b3d bafb ef3d
000001c0: fa26 05bd 1b5a fabc 395d e0bd 2b09 503d
000001d0: 0a22 7a3b 7cab 46bd b5ac abbd cba7 913d
000001e0: d678 b6bd dd1c eebc 64d1 c1bd add4 4a3d
000001f0: 686e 093d d66e 743d 29ce a33d 8124 83be

fc2.bias f4 [2]
-0.05069098 0.059482086
00000000: 58a1 4fbd 7da3 733d
